EmissionModel(
  (decoder): Decoder(
    (net): Sequential(
      (0): Rearrange('b n d -> b (n d)')
      (1): Linear(in_features=1792, out_features=1024, bias=True)
      (2): Rearrange('b (d h w) -> b d h w', h=4, w=4)
      (3): ConvTranspose2d(64, 32, kernel_size=(2, 2), stride=(1, 1))
      (4): ELU(alpha=1.0)
      (5): ConvTranspose2d(32, 16, kernel_size=(2, 2), stride=(1, 1))
      (6): ELU(alpha=1.0)
      (7): ConvTranspose2d(16, 16, kernel_size=(2, 2), stride=(1, 1))
      (8): Rearrange('b d h w -> b (d h w)')
      (9): Linear(in_features=784, out_features=49, bias=True)
      (10): Rearrange('b (d h w) -> b d h w', h=7, w=7)
    )
  )
  (latent_embedding): ModuleList(
    (0): Embedding(2, 128)
    (1): Embedding(2, 128)
    (2): Embedding(2, 128)
    (3): Embedding(2, 128)
    (4): Embedding(2, 128)
    (5): Embedding(2, 128)
    (6): Embedding(2, 128)
    (7): Embedding(2, 128)
    (8): Embedding(2, 128)
    (9): Embedding(2, 128)
    (10): Embedding(2, 128)
    (11): Embedding(2, 128)
    (12): Embedding(2, 128)
    (13): Embedding(2, 128)
  )
)
Validation sanity check: 0it [00:00, ?it/s]Validation sanity check:   0%|                                                                                                         | 0/1 [00:00<?, ?it/s]Validation sanity check: 100%|â–ˆâ–ˆâ–ˆâ–ˆâ–ˆâ–ˆâ–ˆâ–ˆâ–ˆâ–ˆâ–ˆâ–ˆâ–ˆâ–ˆâ–ˆâ–ˆâ–ˆâ–ˆâ–ˆâ–ˆâ–ˆâ–ˆâ–ˆâ–ˆâ–ˆâ–ˆâ–ˆâ–ˆâ–ˆâ–ˆâ–ˆâ–ˆâ–ˆâ–ˆâ–ˆâ–ˆâ–ˆâ–ˆâ–ˆâ–ˆâ–ˆâ–ˆâ–ˆâ–ˆâ–ˆâ–ˆâ–ˆâ–ˆâ–ˆâ–ˆâ–ˆ
…
